…
│    │    └─spatial_attn.out_proj.weight                           ├─589,824
│    │    └─spatial_attn.out_proj.bias                             ├─768
│    │    └─norm2.weight                                           ├─768
│    │    └─norm2.bias                                             ├─768
│    │    └─mlp.0.weight                                           ├─2,359,296
│    │    └─mlp.0.bias                                             ├─3,072
│    │    └─mlp.3.weight                                           ├─2,359,296
│    │    └─mlp.3.bias                                             └─768
│    │    └─LayerNorm: 3-1               [8, 961, 768]             1,536
│    │    │    └─weight                                            ├─768
│    │    │    └─bias                                              └─768
│    │    └─MultiheadAttention: 3-2      [8, 961, 768]             2,362,368
│    │    │    └─in_proj_weight                                    ├─1,769,472
│    │    │    └─in_proj_bias                                      ├─2,304
│    │    │    └─out_proj.weight                                   ├─589,824
│    │    │    └─out_proj.bias                                     └─768
│    │    └─LayerNorm: 3-3               [8, 961, 768]             1,536
│    │    │    └─weight                                            ├─768
│    │    │    └─bias                                              └─768
│    │    └─MultiheadAttention: 3-4      [8, 961, 768]             2,362,368
│    │    │    └─in_proj_weight                                    ├─1,769,472
│    │    │    └─in_proj_bias                                      ├─2,304
│    │    │    └─out_proj.weight                                   ├─589,824
│    │    │    └─out_proj.bias                                     └─768
│    │    └─LayerNorm: 3-5               [8, 961, 768]             1,536
│    │    │    └─weight                                            ├─768
│    │    │    └─bias                                              └─768
│    │    └─Sequential: 3-6              [8, 961, 768]             --
│    │    │    └─0.weight                                          ├─2,359,296
│    │    │    └─0.bias                                            ├─3,072
│    │    │    └─3.weight                                          ├─2,359,296
│    │    │    └─3.bias                                            └─768
│    │    │    └─Linear: 4-1             [8, 961, 3072]            2,362,368
│    │    │    │    └─weight                                       ├─2,359,296
│    │    │    │    └─bias                                         └─3,072
│    │    │    └─GELU: 4-2               [8, 961, 3072]            --
│    │    │    └─Dropout: 4-3            [8, 961, 3072]            --
│    │    │    └─Linear: 4-4             [8, 961, 768]             2,360,064
│    │    │    │    └─weight                                       ├─2,359,296
│    │    │    │    └─bias                                         └─768
│    │    │    └─Dropout: 4-5            [8, 961, 768]             --
│    └─SpatialTransformerBlock: 2-2      [8, 961, 768]             --
│    │    └─norm1.weight                                           ├─768
│    │    └─norm1.bias                                             ├─768
│    │    └─attn.in_proj_weight                                    ├─1,769,472
│    │    └─attn.in_proj_bias                                      ├─2,304
│    │    └─attn.out_proj.weight                                   ├─589,824
│    │    └─attn.out_proj.bias                                     ├─768
…
│    │    └─spatial_attn.out_proj.weight                           ├─589,824
│    │    └─spatial_attn.out_proj.bias                             ├─768
│    │    └─norm2.weight                                           ├─768
│    │    └─norm2.bias                                             ├─768
│    │    └─mlp.0.weight                                           ├─2,359,296
│    │    └─mlp.0.bias                                             ├─3,072
│    │    └─mlp.3.weight                                           ├─2,359,296
│    │    └─mlp.3.bias                                             └─768
│    │    └─LayerNorm: 3-43              [8, 961, 768]             1,536
│    │    │    └─weight                                            ├─768
│    │    │    └─bias                                              └─768
│    │    └─MultiheadAttention: 3-44     [8, 961, 768]             2,362,368
│    │    │    └─in_proj_weight                                    ├─1,769,472
│    │    │    └─in_proj_bias                                      ├─2,304
│    │    │    └─out_proj.weight                                   ├─589,824
│    │    │    └─out_proj.bias                                     └─768
│    │    └─LayerNorm: 3-45              [8, 961, 768]             1,536
│    │    │    └─weight                                            ├─768
│    │    │    └─bias                                              └─768
│    │    └─MultiheadAttention: 3-46     [8, 961, 768]             2,362,368
│    │    │    └─in_proj_weight                                    ├─1,769,472
│    │    │    └─in_proj_bias                                      ├─2,304
│    │    │    └─out_proj.weight                                   ├─589,824
│    │    │    └─out_proj.bias                                     └─768
│    │    └─LayerNorm: 3-47              [8, 961, 768]             1,536
│    │    │    └─weight                                            ├─768
│    │    │    └─bias                                              └─768
│    │    └─Sequential: 3-48             [8, 961, 768]             --
│    │    │    └─0.weight                                          ├─2,359,296
│    │    │    └─0.bias                                            ├─3,072
│    │    │    └─3.weight                                          ├─2,359,296
│    │    │    └─3.bias                                            └─768
│    │    │    └─Linear: 4-36            [8, 961, 3072]            2,362,368
│    │    │    │    └─weight                                       ├─2,359,296
│    │    │    │    └─bias                                         └─3,072
│    │    │    └─GELU: 4-37              [8, 961, 3072]            --
│    │    │    └─Dropout: 4-38           [8, 961, 3072]            --
│    │    │    └─Linear: 4-39            [8, 961, 768]             2,360,064
│    │    │    │    └─weight                                       ├─2,359,296
│    │    │    │    └─bias                                         └─768
│    │    │    └─Dropout: 4-40           [8, 961, 768]             --
├─LayerNorm: 1-4                         [8, 961, 768]             1,536
│    └─weight                                                      ├─768
│    └─bias                                                        └─768
├─Sequential: 1-5                        [8, 961, 64]              --
│    └─0.weight                                                    ├─1,179,648
│    └─0.bias                                                      ├─1,536
│    └─3.weight                                                    ├─98,304
│    └─3.bias                                                      └─64
│    └─Linear: 2-9                       [8, 961, 1536]            1,181,184
│    │    └─weight                                                 ├─1,179,648
│    │    └─bias                                                   └─1,536
│    └─GELU: 2-10                        [8, 961, 1536]            --
│    └─Dropout: 2-11                     [8, 961, 1536]            --
│    └─Linear: 2-12                      [8, 961, 64]              98,368
│    │    └─weight                                                 ├─98,304
│    │    └─bias                                                   └─64
│    └─Tanh: 2-13                        [8, 961, 64]              --
==========================================================================================
Total params: 77,684,032
Trainable params: 77,684,032
Non-trainable params: 0
Total mult-adds (M): 696.56
==========================================================================================
Input size (MB): 0.52
Forward/backward pass size (MB): 3215.92
Params size (MB): 156.59
Estimated Total Size (MB): 3373.03
…
│    │    └─spatial_attn.out_proj.weight                           ├─589,824
│    │    └─spatial_attn.out_proj.bias                             ├─768
│    │    └─norm2.weight                                           ├─768
│    │    └─norm2.bias                                             ├─768
│    │    └─mlp.0.weight                                           ├─1,769,472
│    │    └─mlp.0.bias                                             ├─2,304
│    │    └─mlp.3.weight                                           ├─1,769,472
│    │    └─mlp.3.bias                                             └─768
│    │    └─LayerNorm: 3-1               [8, 961, 768]             1,536
│    │    │    └─weight                                            ├─768
│    │    │    └─bias                                              └─768
│    │    └─MultiheadAttention: 3-2      [8, 961, 768]             2,362,368
│    │    │    └─in_proj_weight                                    ├─1,769,472
│    │    │    └─in_proj_bias                                      ├─2,304
│    │    │    └─out_proj.weight                                   ├─589,824
│    │    │    └─out_proj.bias                                     └─768
│    │    └─LayerNorm: 3-3               [8, 961, 768]             1,536
│    │    │    └─weight                                            ├─768
│    │    │    └─bias                                              └─768
│    │    └─MultiheadAttention: 3-4      [8, 961, 768]             2,362,368
│    │    │    └─in_proj_weight                                    ├─1,769,472
│    │    │    └─in_proj_bias                                      ├─2,304
│    │    │    └─out_proj.weight                                   ├─589,824
│    │    │    └─out_proj.bias                                     └─768
│    │    └─LayerNorm: 3-5               [8, 961, 768]             1,536
│    │    │    └─weight                                            ├─768
│    │    │    └─bias                                              └─768
│    │    └─Sequential: 3-6              [8, 961, 768]             --
│    │    │    └─0.weight                                          ├─1,769,472
│    │    │    └─0.bias                                            ├─2,304
│    │    │    └─3.weight                                          ├─1,769,472
│    │    │    └─3.bias                                            └─768
│    │    │    └─Linear: 4-1             [8, 961, 2304]            1,771,776
│    │    │    │    └─weight                                       ├─1,769,472
│    │    │    │    └─bias                                         └─2,304
│    │    │    └─GELU: 4-2               [8, 961, 2304]            --
│    │    │    └─Dropout: 4-3            [8, 961, 2304]            --
│    │    │    └─Linear: 4-4             [8, 961, 768]             1,770,240
│    │    │    │    └─weight                                       ├─1,769,472
│    │    │    │    └─bias                                         └─768
│    │    │    └─Dropout: 4-5            [8, 961, 768]             --
│    └─SpatialTransformerBlock: 2-2      [8, 961, 768]             --
│    │    └─norm1.weight                                           ├─768
│    │    └─norm1.bias                                             ├─768
│    │    └─attn.in_proj_weight                                    ├─1,769,472
│    │    └─attn.in_proj_bias                                      ├─2,304
│    │    └─attn.out_proj.weight                                   ├─589,824
│    │    └─attn.out_proj.bias                                     ├─768
…
│    │    └─spatial_attn.out_proj.weight                           ├─589,824
│    │    └─spatial_attn.out_proj.bias                             ├─768
│    │    └─norm2.weight                                           ├─768
│    │    └─norm2.bias                                             ├─768
│    │    └─mlp.0.weight                                           ├─1,769,472
│    │    └─mlp.0.bias                                             ├─2,304
│    │    └─mlp.3.weight                                           ├─1,769,472
│    │    └─mlp.3.bias                                             └─768
│    │    └─LayerNorm: 3-43              [8, 961, 768]             1,536
│    │    │    └─weight                                            ├─768
│    │    │    └─bias                                              └─768
│    │    └─MultiheadAttention: 3-44     [8, 961, 768]             2,362,368
│    │    │    └─in_proj_weight                                    ├─1,769,472
│    │    │    └─in_proj_bias                                      ├─2,304
│    │    │    └─out_proj.weight                                   ├─589,824
│    │    │    └─out_proj.bias                                     └─768
│    │    └─LayerNorm: 3-45              [8, 961, 768]             1,536
│    │    │    └─weight                                            ├─768
│    │    │    └─bias                                              └─768
│    │    └─MultiheadAttention: 3-46     [8, 961, 768]             2,362,368
│    │    │    └─in_proj_weight                                    ├─1,769,472
│    │    │    └─in_proj_bias                                      ├─2,304
│    │    │    └─out_proj.weight                                   ├─589,824
│    │    │    └─out_proj.bias                                     └─768
│    │    └─LayerNorm: 3-47              [8, 961, 768]             1,536
│    │    │    └─weight                                            ├─768
│    │    │    └─bias                                              └─768
│    │    └─Sequential: 3-48             [8, 961, 768]             --
│    │    │    └─0.weight                                          ├─1,769,472
│    │    │    └─0.bias                                            ├─2,304
│    │    │    └─3.weight                                          ├─1,769,472
│    │    │    └─3.bias                                            └─768
│    │    │    └─Linear: 4-36            [8, 961, 2304]            1,771,776
│    │    │    │    └─weight                                       ├─1,769,472
│    │    │    │    └─bias                                         └─2,304
│    │    │    └─GELU: 4-37              [8, 961, 2304]            --
│    │    │    └─Dropout: 4-38           [8, 961, 2304]            --
│    │    │    └─Linear: 4-39            [8, 961, 768]             1,770,240
│    │    │    │    └─weight                                       ├─1,769,472
│    │    │    │    └─bias                                         └─768
│    │    │    └─Dropout: 4-40           [8, 961, 768]             --
├─LayerNorm: 1-4                         [8, 961, 768]             1,536
│    └─weight                                                      ├─768
│    └─bias                                                        └─768
├─Sequential: 1-5                        [8, 961, 64]              --
│    └─0.weight                                                    ├─1,179,648
│    └─0.bias                                                      ├─1,536
│    └─3.weight                                                    ├─98,304
│    └─3.bias                                                      └─64
│    └─Linear: 2-9                       [8, 961, 1536]            1,181,184
│    │    └─weight                                                 ├─1,179,648
│    │    └─bias                                                   └─1,536
│    └─GELU: 2-10                        [8, 961, 1536]            --
│    └─Dropout: 2-11                     [8, 961, 1536]            --
│    └─Linear: 2-12                      [8, 961, 64]              98,368
│    │    └─weight                                                 ├─98,304
│    │    └─bias                                                   └─64
│    └─Tanh: 2-13                        [8, 961, 64]              --
==========================================================================================
Total params: 68,240,704
Trainable params: 68,240,704
Non-trainable params: 0
Total mult-adds (M): 621.02
==========================================================================================
Input size (MB): 0.52
Forward/backward pass size (MB): 2838.04
Params size (MB): 118.82
Estimated Total Size (MB): 2957.38
…
│    │    └─spatial_attn.out_proj.weight                           ├─589,824
│    │    └─spatial_attn.out_proj.bias                             ├─768
│    │    └─norm2.weight                                           ├─768
│    │    └─norm2.bias                                             ├─768
│    │    └─mlp.0.weight                                           ├─1,179,648
│    │    └─mlp.0.bias                                             ├─1,536
│    │    └─mlp.3.weight                                           ├─1,179,648
│    │    └─mlp.3.bias                                             └─768
│    │    └─LayerNorm: 3-1               [8, 961, 768]             1,536
│    │    │    └─weight                                            ├─768
│    │    │    └─bias                                              └─768
│    │    └─MultiheadAttention: 3-2      [8, 961, 768]             2,362,368
│    │    │    └─in_proj_weight                                    ├─1,769,472
│    │    │    └─in_proj_bias                                      ├─2,304
│    │    │    └─out_proj.weight                                   ├─589,824
│    │    │    └─out_proj.bias                                     └─768
│    │    └─LayerNorm: 3-3               [8, 961, 768]             1,536
│    │    │    └─weight                                            ├─768
│    │    │    └─bias                                              └─768
│    │    └─MultiheadAttention: 3-4      [8, 961, 768]             2,362,368
│    │    │    └─in_proj_weight                                    ├─1,769,472
│    │    │    └─in_proj_bias                                      ├─2,304
│    │    │    └─out_proj.weight                                   ├─589,824
│    │    │    └─out_proj.bias                                     └─768
│    │    └─LayerNorm: 3-5               [8, 961, 768]             1,536
│    │    │    └─weight                                            ├─768
│    │    │    └─bias                                              └─768
│    │    └─Sequential: 3-6              [8, 961, 768]             --
│    │    │    └─0.weight                                          ├─1,179,648
│    │    │    └─0.bias                                            ├─1,536
│    │    │    └─3.weight                                          ├─1,179,648
│    │    │    └─3.bias                                            └─768
│    │    │    └─Linear: 4-1             [8, 961, 1536]            1,181,184
│    │    │    │    └─weight                                       ├─1,179,648
│    │    │    │    └─bias                                         └─1,536
│    │    │    └─GELU: 4-2               [8, 961, 1536]            --
│    │    │    └─Dropout: 4-3            [8, 961, 1536]            --
│    │    │    └─Linear: 4-4             [8, 961, 768]             1,180,416
│    │    │    │    └─weight                                       ├─1,179,648
│    │    │    │    └─bias                                         └─768
│    │    │    └─Dropout: 4-5            [8, 961, 768]             --
│    └─SpatialTransformerBlock: 2-2      [8, 961, 768]             --
│    │    └─norm1.weight                                           ├─768
│    │    └─norm1.bias                                             ├─768
│    │    └─attn.in_proj_weight                                    ├─1,769,472
│    │    └─attn.in_proj_bias                                      ├─2,304
│    │    └─attn.out_proj.weight                                   ├─589,824
│    │    └─attn.out_proj.bias                                     ├─768
…
│    │    └─spatial_attn.out_proj.weight                           ├─589,824
│    │    └─spatial_attn.out_proj.bias                             ├─768
│    │    └─norm2.weight                                           ├─768
│    │    └─norm2.bias                                             ├─768
│    │    └─mlp.0.weight                                           ├─1,179,648
│    │    └─mlp.0.bias                                             ├─1,536
│    │    └─mlp.3.weight                                           ├─1,179,648
│    │    └─mlp.3.bias                                             └─768
│    │    └─LayerNorm: 3-43              [8, 961, 768]             1,536
│    │    │    └─weight                                            ├─768
│    │    │    └─bias                                              └─768
│    │    └─MultiheadAttention: 3-44     [8, 961, 768]             2,362,368
│    │    │    └─in_proj_weight                                    ├─1,769,472
│    │    │    └─in_proj_bias                                      ├─2,304
│    │    │    └─out_proj.weight                                   ├─589,824
│    │    │    └─out_proj.bias                                     └─768
│    │    └─LayerNorm: 3-45              [8, 961, 768]             1,536
│    │    │    └─weight                                            ├─768
│    │    │    └─bias                                              └─768
│    │    └─MultiheadAttention: 3-46     [8, 961, 768]             2,362,368
│    │    │    └─in_proj_weight                                    ├─1,769,472
│    │    │    └─in_proj_bias                                      ├─2,304
│    │    │    └─out_proj.weight                                   ├─589,824
│    │    │    └─out_proj.bias                                     └─768
│    │    └─LayerNorm: 3-47              [8, 961, 768]             1,536
│    │    │    └─weight                                            ├─768
│    │    │    └─bias                                              └─768
│    │    └─Sequential: 3-48             [8, 961, 768]             --
│    │    │    └─0.weight                                          ├─1,179,648
│    │    │    └─0.bias                                            ├─1,536
│    │    │    └─3.weight                                          ├─1,179,648
│    │    │    └─3.bias                                            └─768
│    │    │    └─Linear: 4-36            [8, 961, 1536]            1,181,184
│    │    │    │    └─weight                                       ├─1,179,648
│    │    │    │    └─bias                                         └─1,536
│    │    │    └─GELU: 4-37              [8, 961, 1536]            --
│    │    │    └─Dropout: 4-38           [8, 961, 1536]            --
│    │    │    └─Linear: 4-39            [8, 961, 768]             1,180,416
│    │    │    │    └─weight                                       ├─1,179,648
│    │    │    │    └─bias                                         └─768
│    │    │    └─Dropout: 4-40           [8, 961, 768]             --
├─LayerNorm: 1-4                         [8, 961, 768]             1,536
│    └─weight                                                      ├─768
│    └─bias                                                        └─768
├─Sequential: 1-5                        [8, 961, 64]              --
│    └─0.weight                                                    ├─1,179,648
│    └─0.bias                                                      ├─1,536
│    └─3.weight                                                    ├─98,304
│    └─3.bias                                                      └─64
│    └─Linear: 2-9                       [8, 961, 1536]            1,181,184
│    │    └─weight                                                 ├─1,179,648
│    │    └─bias                                                   └─1,536
│    └─GELU: 2-10                        [8, 961, 1536]            --
│    └─Dropout: 2-11                     [8, 961, 1536]            --
│    └─Linear: 2-12                      [8, 961, 64]              98,368
│    │    └─weight                                                 ├─98,304
│    │    └─bias                                                   └─64
│    └─Tanh: 2-13                        [8, 961, 64]              --
==========================================================================================
Total params: 58,797,376
Trainable params: 58,797,376
Non-trainable params: 0
Total mult-adds (M): 545.47
==========================================================================================
Input size (MB): 0.52
Forward/backward pass size (MB): 2460.16
Params size (MB): 81.04
Estimated Total Size (MB): 2541.73
…
│    │    └─spatial_attn.out_proj.weight                           ├─589,824
│    │    └─spatial_attn.out_proj.bias                             ├─768
│    │    └─norm2.weight                                           ├─768
│    │    └─norm2.bias                                             ├─768
│    │    └─mlp.0.weight                                           ├─2,359,296
│    │    └─mlp.0.bias                                             ├─3,072
│    │    └─mlp.3.weight                                           ├─2,359,296
│    │    └─mlp.3.bias                                             └─768
│    │    └─LayerNorm: 3-1               [8, 225, 768]             1,536
│    │    │    └─weight                                            ├─768
│    │    │    └─bias                                              └─768
│    │    └─MultiheadAttention: 3-2      [8, 225, 768]             2,362,368
│    │    │    └─in_proj_weight                                    ├─1,769,472
│    │    │    └─in_proj_bias                                      ├─2,304
│    │    │    └─out_proj.weight                                   ├─589,824
│    │    │    └─out_proj.bias                                     └─768
│    │    └─LayerNorm: 3-3               [8, 225, 768]             1,536
│    │    │    └─weight                                            ├─768
│    │    │    └─bias                                              └─768
│    │    └─MultiheadAttention: 3-4      [8, 225, 768]             2,362,368
│    │    │    └─in_proj_weight                                    ├─1,769,472
│    │    │    └─in_proj_bias                                      ├─2,304
│    │    │    └─out_proj.weight                                   ├─589,824
│    │    │    └─out_proj.bias                                     └─768
│    │    └─LayerNorm: 3-5               [8, 225, 768]             1,536
│    │    │    └─weight                                            ├─768
│    │    │    └─bias                                              └─768
│    │    └─Sequential: 3-6              [8, 225, 768]             --
│    │    │    └─0.weight                                          ├─2,359,296
│    │    │    └─0.bias                                            ├─3,072
│    │    │    └─3.weight                                          ├─2,359,296
│    │    │    └─3.bias                                            └─768
│    │    │    └─Linear: 4-1             [8, 225, 3072]            2,362,368
│    │    │    │    └─weight                                       ├─2,359,296
│    │    │    │    └─bias                                         └─3,072
│    │    │    └─GELU: 4-2               [8, 225, 3072]            --
│    │    │    └─Dropout: 4-3            [8, 225, 3072]            --
│    │    │    └─Linear: 4-4             [8, 225, 768]             2,360,064
│    │    │    │    └─weight                                       ├─2,359,296
│    │    │    │    └─bias                                         └─768
│    │    │    └─Dropout: 4-5            [8, 225, 768]             --
│    └─SpatialTransformerBlock: 2-2      [8, 225, 768]             --
│    │    └─norm1.weight                                           ├─768
│    │    └─norm1.bias                                             ├─768
│    │    └─attn.in_proj_weight                                    ├─1,769,472
│    │    └─attn.in_proj_bias                                      ├─2,304
│    │    └─attn.out_proj.weight                                   ├─589,824
│    │    └─attn.out_proj.bias                                     ├─768
…
│    │    └─spatial_attn.out_proj.weight                           ├─589,824
│    │    └─spatial_attn.out_proj.bias                             ├─768
│    │    └─norm2.weight                                           ├─768
│    │    └─norm2.bias                                             ├─768
│    │    └─mlp.0.weight                                           ├─2,359,296
│    │    └─mlp.0.bias                                             ├─3,072
│    │    └─mlp.3.weight                                           ├─2,359,296
│    │    └─mlp.3.bias                                             └─768
│    │    └─LayerNorm: 3-43              [8, 225, 768]             1,536
│    │    │    └─weight                                            ├─768
│    │    │    └─bias                                              └─768
│    │    └─MultiheadAttention: 3-44     [8, 225, 768]             2,362,368
│    │    │    └─in_proj_weight                                    ├─1,769,472
│    │    │    └─in_proj_bias                                      ├─2,304
│    │    │    └─out_proj.weight                                   ├─589,824
│    │    │    └─out_proj.bias                                     └─768
│    │    └─LayerNorm: 3-45              [8, 225, 768]             1,536
│    │    │    └─weight                                            ├─768
│    │    │    └─bias                                              └─768
│    │    └─MultiheadAttention: 3-46     [8, 225, 768]             2,362,368
│    │    │    └─in_proj_weight                                    ├─1,769,472
│    │    │    └─in_proj_bias                                      ├─2,304
│    │    │    └─out_proj.weight                                   ├─589,824
│    │    │    └─out_proj.bias                                     └─768
│    │    └─LayerNorm: 3-47              [8, 225, 768]             1,536
│    │    │    └─weight                                            ├─768
│    │    │    └─bias                                              └─768
│    │    └─Sequential: 3-48             [8, 225, 768]             --
│    │    │    └─0.weight                                          ├─2,359,296
│    │    │    └─0.bias                                            ├─3,072
│    │    │    └─3.weight                                          ├─2,359,296
│    │    │    └─3.bias                                            └─768
│    │    │    └─Linear: 4-36            [8, 225, 3072]            2,362,368
│    │    │    │    └─weight                                       ├─2,359,296
│    │    │    │    └─bias                                         └─3,072
│    │    │    └─GELU: 4-37              [8, 225, 3072]            --
│    │    │    └─Dropout: 4-38           [8, 225, 3072]            --
│    │    │    └─Linear: 4-39            [8, 225, 768]             2,360,064
│    │    │    │    └─weight                                       ├─2,359,296
│    │    │    │    └─bias                                         └─768
│    │    │    └─Dropout: 4-40           [8, 225, 768]             --
├─LayerNorm: 1-4                         [8, 225, 768]             1,536
│    └─weight                                                      ├─768
│    └─bias                                                        └─768
├─Sequential: 1-5                        [8, 225, 256]             --
│    └─0.weight                                                    ├─1,179,648
│    └─0.bias                                                      ├─1,536
│    └─3.weight                                                    ├─393,216
│    └─3.bias                                                      └─256
│    └─Linear: 2-9                       [8, 225, 1536]            1,181,184
│    │    └─weight                                                 ├─1,179,648
│    │    └─bias                                                   └─1,536
│    └─GELU: 2-10                        [8, 225, 1536]            --
│    └─Dropout: 2-11                     [8, 225, 1536]            --
│    └─Linear: 2-12                      [8, 225, 256]             393,472
│    │    └─weight                                                 ├─393,216
│    │    └─bias                                                   └─256
│    └─Tanh: 2-13                        [8, 225, 256]             --
==========================================================================================
Total params: 77,561,344
Trainable params: 77,561,344
Non-trainable params: 0
Total mult-adds (M): 670.42
==========================================================================================
Input size (MB): 0.52
Forward/backward pass size (MB): 755.71
Params size (MB): 158.36
Estimated Total Size (MB): 914.60
…
│    │    └─spatial_attn.out_proj.weight                           ├─589,824
│    │    └─spatial_attn.out_proj.bias                             ├─768
│    │    └─norm2.weight                                           ├─768
│    │    └─norm2.bias                                             ├─768
│    │    └─mlp.0.weight                                           ├─1,179,648
│    │    └─mlp.0.bias                                             ├─1,536
│    │    └─mlp.3.weight                                           ├─1,179,648
│    │    └─mlp.3.bias                                             └─768
│    │    └─LayerNorm: 3-1               [8, 225, 768]             1,536
│    │    │    └─weight                                            ├─768
│    │    │    └─bias                                              └─768
│    │    └─MultiheadAttention: 3-2      [8, 225, 768]             2,362,368
│    │    │    └─in_proj_weight                                    ├─1,769,472
│    │    │    └─in_proj_bias                                      ├─2,304
│    │    │    └─out_proj.weight                                   ├─589,824
│    │    │    └─out_proj.bias                                     └─768
│    │    └─LayerNorm: 3-3               [8, 225, 768]             1,536
│    │    │    └─weight                                            ├─768
│    │    │    └─bias                                              └─768
│    │    └─MultiheadAttention: 3-4      [8, 225, 768]             2,362,368
│    │    │    └─in_proj_weight                                    ├─1,769,472
│    │    │    └─in_proj_bias                                      ├─2,304
│    │    │    └─out_proj.weight                                   ├─589,824
│    │    │    └─out_proj.bias                                     └─768
│    │    └─LayerNorm: 3-5               [8, 225, 768]             1,536
│    │    │    └─weight                                            ├─768
│    │    │    └─bias                                              └─768
│    │    └─Sequential: 3-6              [8, 225, 768]             --
│    │    │    └─0.weight                                          ├─1,179,648
│    │    │    └─0.bias                                            ├─1,536
│    │    │    └─3.weight                                          ├─1,179,648
│    │    │    └─3.bias                                            └─768
│    │    │    └─Linear: 4-1             [8, 225, 1536]            1,181,184
│    │    │    │    └─weight                                       ├─1,179,648
│    │    │    │    └─bias                                         └─1,536
│    │    │    └─GELU: 4-2               [8, 225, 1536]            --
│    │    │    └─Dropout: 4-3            [8, 225, 1536]            --
│    │    │    └─Linear: 4-4             [8, 225, 768]             1,180,416
│    │    │    │    └─weight                                       ├─1,179,648
│    │    │    │    └─bias                                         └─768
│    │    │    └─Dropout: 4-5            [8, 225, 768]             --
│    └─SpatialTransformerBlock: 2-2      [8, 225, 768]             --
│    │    └─norm1.weight                                           ├─768
│    │    └─norm1.bias                                             ├─768
│    │    └─attn.in_proj_weight                                    ├─1,769,472
│    │    └─attn.in_proj_bias                                      ├─2,304
│    │    └─attn.out_proj.weight                                   ├─589,824
│    │    └─attn.out_proj.bias                                     ├─768
…
│    │    └─spatial_attn.out_proj.weight                           ├─589,824
│    │    └─spatial_attn.out_proj.bias                             ├─768
│    │    └─norm2.weight                                           ├─768
│    │    └─norm2.bias                                             ├─768
│    │    └─mlp.0.weight                                           ├─1,179,648
│    │    └─mlp.0.bias                                             ├─1,536
│    │    └─mlp.3.weight                                           ├─1,179,648
│    │    └─mlp.3.bias                                             └─768
│    │    └─LayerNorm: 3-43              [8, 225, 768]             1,536
│    │    │    └─weight                                            ├─768
│    │    │    └─bias                                              └─768
│    │    └─MultiheadAttention: 3-44     [8, 225, 768]             2,362,368
│    │    │    └─in_proj_weight                                    ├─1,769,472
│    │    │    └─in_proj_bias                                      ├─2,304
│    │    │    └─out_proj.weight                                   ├─589,824
│    │    │    └─out_proj.bias                                     └─768
│    │    └─LayerNorm: 3-45              [8, 225, 768]             1,536
│    │    │    └─weight                                            ├─768
│    │    │    └─bias                                              └─768
│    │    └─MultiheadAttention: 3-46     [8, 225, 768]             2,362,368
│    │    │    └─in_proj_weight                                    ├─1,769,472
│    │    │    └─in_proj_bias                                      ├─2,304
│    │    │    └─out_proj.weight                                   ├─589,824
│    │    │    └─out_proj.bias                                     └─768
│    │    └─LayerNorm: 3-47              [8, 225, 768]             1,536
│    │    │    └─weight                                            ├─768
│    │    │    └─bias                                              └─768
│    │    └─Sequential: 3-48             [8, 225, 768]             --
│    │    │    └─0.weight                                          ├─1,179,648
│    │    │    └─0.bias                                            ├─1,536
│    │    │    └─3.weight                                          ├─1,179,648
│    │    │    └─3.bias                                            └─768
│    │    │    └─Linear: 4-36            [8, 225, 1536]            1,181,184
│    │    │    │    └─weight                                       ├─1,179,648
│    │    │    │    └─bias                                         └─1,536
│    │    │    └─GELU: 4-37              [8, 225, 1536]            --
│    │    │    └─Dropout: 4-38           [8, 225, 1536]            --
│    │    │    └─Linear: 4-39            [8, 225, 768]             1,180,416
│    │    │    │    └─weight                                       ├─1,179,648
│    │    │    │    └─bias                                         └─768
│    │    │    └─Dropout: 4-40           [8, 225, 768]             --
├─LayerNorm: 1-4                         [8, 225, 768]             1,536
│    └─weight                                                      ├─768
│    └─bias                                                        └─768
├─Sequential: 1-5                        [8, 225, 256]             --
│    └─0.weight                                                    ├─1,179,648
│    └─0.bias                                                      ├─1,536
│    └─3.weight                                                    ├─393,216
│    └─3.bias                                                      └─256
│    └─Linear: 2-9                       [8, 225, 1536]            1,181,184
│    │    └─weight                                                 ├─1,179,648
│    │    └─bias                                                   └─1,536
│    └─GELU: 2-10                        [8, 225, 1536]            --
│    └─Dropout: 2-11                     [8, 225, 1536]            --
│    └─Linear: 2-12                      [8, 225, 256]             393,472
│    │    └─weight                                                 ├─393,216
│    │    └─bias                                                   └─256
│    └─Tanh: 2-13                        [8, 225, 256]             --
==========================================================================================
Total params: 58,674,688
Trainable params: 58,674,688
Non-trainable params: 0
Total mult-adds (M): 519.32
==========================================================================================
Input size (MB): 0.52
Forward/backward pass size (MB): 578.76
Params size (MB): 82.81
Estimated Total Size (MB): 662.10
…
